…
小为2的<a href="https://keras.io/layers/pooling/">池化层</a>，这里的池化大小为2，意味着将会对每一个输入缩减为原来的一般，因此在下一个卷积层中，输入大小为14x14像素。按照此方式重复两次后，最终的卷积输入大小转换为3x3像素。接下来，使用了<a href="https://keras.io/layers/core/#dropout">Dropout层</a>，将30%的输入单元随机设置为0，以防止训练的过拟合。最后，展平输入层（此例子中为3x3x32&#x3D;288），并将它们连接到一个具有500个输入的密度层。在这些步骤之后，添加了另一个Dropout层，之后连接到最后的密度层，该密度层中包含10个输出单元，这些输出单元对应着我们的目标类别，0到9之间的数字。</p><pre><code>_________________________________________________________________Layer (type)                 Output Shape              Param #   =================================================================conv2d_1 (Conv2D)            (None, 28, 28, 32)        320       _________________________________________________________________max_pooling2d_1 (MaxPooling2 (None, 14, 14, 32)        0         _________________________________________________________________conv2d_2 (Conv2D)            (None, 14, 14, 32)        4128      _________________________________________________________________max_pooling2d_2 (MaxPooling2 (None, 7, 7, 32)          0         _________________________________________________________________conv2d_3 (Conv2D)            (None, 7, 7, 32)          4128      _________________________________________________________________max_pooling2d_3 (MaxPooling2 (None, 3, 3, 32)          0         _________________________________________________________________dropout_1 (Dropout)          (None, 3, 3, 32)          0         _________________________________________________________________flatten_1 (Flatten)          (None, 288)               0         _________________________________________________________________dense_1 (Dense)              (None, 500)               144500    _________________________________________________________________dropout_2 (Dropout)          (None, 500)               0         _________________________________________________________________dense_2 (Dense)              (None, 10)                5010      =================================================================Total params: 158,086Trainable params: 158,086Non-trainable params: 0_________________________________________________________________</code></pre><h2 id="-2"><a href="#-2" class="headerlink" title=""></a></h2><h2 id="7-训练模型"><a href="#7-训练模型" class="headerlink" title="7. 训练模型"></a>7. 训练模型</h2><figure class="highlight python"><
…
